data.pth (torch, 3735 bytes, 6 tensors)

l1.weight f4 [8, 28]
0.56789714 0.20677651 -0.19190241 -0.24444956 -0.25371784 -0.31853315 -0.32040626 0.006257998
-0.08451844 -0.4038392 -0.4029748 0.3605855 -0.37102127 -0.40281057 -0.45920172 -0.22727491
-0.057486326 -0.0067439717 -0.3589067 0.49070132 0.07284487 -0.38897252 0.12088471 -0.030359441
0.84418416 0.39794 0.014434707 0.34569344 -0.36715114 -0.11286734 -0.07974895 0.12442531
1.1119353 -0.14666146 -0.047266975 -0.05216149 -0.09645017 1.1101242 0.21602589 -0.14905974
-0.018145962 -0.16045108 -0.018744878 0.12544759 -0.22107323 -0.08498603 0.8182779 -0.05478011
-0.34079117 0.8670599 -0.109596126 -0.19596103 -0.68515646 -0.16905706 -0.21151395 0.06456703
-0.090804614 -0.24211667 0.41091 0.31546894 -0.09049509 0.41832608 -0.156917 -0.08169486
0.5873567 0.18612781 0.36198673 -0.18770914 0.68595773 0.51220006 0.5732921 0.4408763
0.078149736 -0.2791882 0.17799066 0.055618238 -0.05360083 0.11024777 -0.18157895 -0.050852194
-0.5609715 -0.24592249 0.44553226 -0.0015588348 0.3259691 0.47656447 -0.13291289 -0.1803745
-0.17815746 -0.1784206 0.38008162 0.46777597 -0.004026001 0.19419442 -0.18271789 0.39681605
-0.18293306 -0.18232879 -0.15041503 -0.11661548 0.45944872 0.397083 -0.15290813 0.28814584
0.29384986 -0.1801887 0.30999103 0.38020733 0.58877975 0.3241419 0.015408173 0.150139
-0.0461033 -0.030357212 -0.15521844 -0.1409196 -0.15327525 -0.1830594 -0.0091497 -0.072243676
-0.18299656 0.014885575 -0.16987388 -0.18272159 0.07734634 -0.1479756 0.14663257 -0.18628341
-0.07126344 -0.16096365 0.08396672 0.09523912 0.017199293 -0.018807352 0.1495079 0.023660451
-0.08266148 0.08967517 0.115328506 -0.18231647 0.6054765 -0.026940314 0.33039418 0.29203784
-0.41879386 0.29482108 -0.4585009 -0.2859996 0.49157655 -0.29321238 0.6132647 0.6108847
0.55796087 0.60665184 0.4126461 0.22381143 -0.3395763 -0.1837138 -0.22885685 0.35588622
-0.12615095 -0.46948534 -0.060493693 -0.3221077 0.99748707 0.5654263 0.4322043 0.22251889
-0.1206214 -0.19523783 0.28717682 0.49688193 -0.090185076 0.24378815 -0.16357014 -0.237358
0.23001991 -0.114460215 0.57692975 -0.26650116 0.58579665 0.505052 0.17996088 0.4234186
-0.11986591 -0.2767028 -0.2064544 0.081492625 -0.16041487 0.002948979 -0.021299265 -0.21937369
-0.598682 -0.24773388 0.18452409 0.07507949 -0.046982083 0.25614738 -0.21797144 -0.30624002
0.91711783 -0.24128647 0.24804936 0.16104917 -0.29007593 0.9549706 -0.5312692 -0.2686841
-0.5316362 -0.53141564 -0.24819657 -0.22717288 0.41369033 0.45093763 0.72088146 -0.19990571
0.34864703 0.518579 0.42630845 0.3999269 -0.54619586 -0.21734367 -0.081852354 0.023257304
00000000: b561 113f 39bd 533e 1182 44be fc50 7abe
00000010: 4ee7 81be c716 a3be 4a0c a4be e40f cd3b
00000020: 0118 adbd 03c4 cebe b752 cebe aa9e b83e
00000030: 80f6 bdbe 303d cebe 7d1c ebbe c1ba 68be
00000040: c876 6bbd 89fc dcbb 9ec2 b7be 343d fb3e
00000050: b12f 953d 6827 c7be 6792 f73d 5db4 f8bc
00000060: 741c 583f cbbe cb3e 8d7f 6c3c bbfe b03e
00000070: 3cfb bbbe fe26 e7bd 6b53 a3bd b2d2 fe3d
00000080: e553 8e3f 6c2e 16be 049b 41bd 49a7 55bd
00000090: ab87 c5bd 8d18 8e3f e435 5d3e 1ea3 18be
000000a0: d7a6 94bc 4a4d 24be dc8e 99bc 5575 003e
000000b0: 0561 62be 280d aebd a97a 513f 1c61 60bd
000000c0: 2e7c aebe a3f7 5d3f ef73 e0bd 02aa 48be
000000d0: 6a66 2fbf 4b1d 2dbe 1d97 58be b83b 843d
000000e0: c5f7 b9bd 6fed 77be cc62 d23e 2585 a13e
000000f0: 7d55 b9bd d62e d63e daae 20be a24f a7bd
00000100: 025d 163f 4a98 3e3e 5356 b93e d336 40be
00000110: ed9a 2f3f 8b1f 033f 45c3 123f 8aba e13e
00000120: f80c a03d c1f1 8ebe 2f43 363e f3cf 633d
00000130: 8b8c 5bbd 95c9 e13d d5ef 39be 644a 50bd
00000140: d49b 0fbf 1bd3 7bbe ce1c e43e d151 ccba
00000150: 6ce5 a63e 4200 f43e 511a 08be 18b4 38be
00000160: e96e 36be e4b3 36be 0f9a c23e 5580 ef3e
00000170: 8bec 83bb e7da 463e 661a 3bbe 792b cb3e
00000180: ce52 3bbe 66b4 3abe 6606 1abe 19d4 eebd
00000190: dd3c eb3e 774e cb3e f393 1cbe da87 933e
000001a0: 7d73 963e 6383 38be 25b7 9e3e 89aa c23e
000001b0: 45ba 163f edf5 a53e 9072 7c3c 0abe 193e
000001c0: d0d6 3cbd b0af f8bc 95f1 1ebe 3a4d 10be
000001d0: 30f4 1cbe ec73 3bbe a0e8 15bc 7ef4 93bd
000001e0: 7363 3bbe a0e2 733c 6bf3 2dbe 5e1b 3bbe
000001f0: c267 9e3d ea86 17be d926 163e 14c1 3ebe
00000200: 91f2 91bd a8d3 24be bef6 ab3d ba0c c33d
00000210: 88e5 8c3c e011 9abc 9918 193e 90d3 c13c
00000220: 6c4a a9bd 9ea7 b73d 5a31 ec3d 2bb1 3abe
00000230: 8200 1b3f efb1 dcbc 6d29 a93e fc85 953e
00000240: 266c d6be caf2 963e a1c0 eabe 8a6e 92be
00000250: ecaf fb3e ef1f 96be eafe 1c3f f162 1c3f
00000260: 86d6 0e3f 894d 1b3f 5a46 d33e d32e 653e
00000270: f2dc adbe 781f 3cbe 7359 6abe b836 b63e
00000280: b72d 01be 6260 f0be 3cc8 77bd 4deb a4be
00000290: 505b 7f3f c7bf 103f e249 dd3e fedb 633e
000002a0: 5a08 f7bd 6dec 47be d708 933e 4f67 fe3e
000002b0: f4b2 b8bd 9aa3 793e ee7e 27be fa0d 73be
000002c0: 578a 6b3e 1e6a eabd abb1 133f d772 88be
000002d0: c5f6 153f 164b 013f aa47 383e 53ca d83e
000002e0: 427c f5bd fdab 8dbe c868 53be 9be5 a63d
000002f0: cc43 24be a843 413b cc7b aebc 7fa3 60be
00000300: 3943 19bf f3ad 7dbe e2f3 3c3e 47c3 993d
00000310: 4970 40bd c025 833e e833 5fbe 7ecb 9cbe
00000320: 3cc8 6a3f cd13 77be a700 7e3e 13ea 243e
00000330: d584 94be f478 743f 4201 08bf f690 89be
00000340: 4f19 08bf db0a 08bf 3e27 7ebe 02a0 68be
00000350: 38cf d33e 4ce1 e63e b08b 383f 15b4 4cbe
00000360: dd81 b23e 98c1 043f 1a45 da3e 38c3 cc3e
00000370: 7ed3 0bbf 578f 5ebe 35a2 a7bd 1a86 be3c

l1.bias f4 [8]
0.4034726 0.68516773 0.5627358 0.18287252 -0.12782021 0.781969 0.6350132 0.53083915
00000000: f693 ce3e 2767 2f3f 740f 103f ef42 3b3e
00000010: 4de3 02be 1f2f 483f 3a90 223f 13e5 073f

l2.weight f4 [8, 8]
-0.5085219 -0.14386539 0.65787005 -0.70903623 -0.14730942 0.39602005 0.9867143 -0.75561935
-0.6410561 1.6047584 0.7646106 -0.7606549 0.017709136 0.360247 0.8395982 0.42281643
0.16405353 -0.07758823 -0.04817629 -0.14855744 0.08692649 -0.14902797 -0.22060293 -0.30014384
0.21020237 -0.3535299 -0.12529622 -0.055064857 -0.15730746 -0.062637 0.033531606 -0.2914225
0.90210897 -0.76395136 -0.59543914 0.33514148 -0.15144639 0.90979743 -0.37135708 -0.8731161
-0.33352065 -0.38367102 -0.056205925 0.093314625 -0.20403087 -0.055889934 -0.18238467 0.11788885
0.78751606 -0.22757427 0.11844224 0.061233554 0.21153429 1.0240092 0.33117506 -0.58669376
-0.58795774 -0.08533048 0.72902876 -0.9082424 -0.34101555 0.7656331 0.9096848 -0.67625725
00000000: 7e2e 02bf 7351 13be 2c6a 283f 6683 35bf
00000010: 48d8 16be 24c3 ca3e 4f99 7c3f 4570 41bf
00000020: 411c 24bf b968 cd3f 85bd 433f 48ba 42bf
00000030: c012 913c 4b72 b83e e8ef 563f 657b d83e
00000040: a6fd 273e 94e6 9ebd 8054 45bd 711f 18be
00000050: 8406 b23d ca9a 18be bce5 61be 74ac 99be
00000060: 4a3f 573e df01 b5be a74d 00be b08b 61bd
00000070: 3515 21be d447 80bd 7058 093d 5435 95be
00000080: 9df0 663f 5192 43bf b36e 18bf aa97 ab3e
00000090: c314 1bbe 7ce8 683f 8422 bebe 8984 5fbf
000000a0: 38c3 aabe 8770 c4be 2f38 66bd bd1b bf3d
000000b0: 78ed 50be d8ec 64bd 0cc3 3abe b66f f13d
000000c0: a79a 493f 3b09 69be d891 f23d 09d0 7a3d
000000d0: 729c 583e bc12 833f c78f a93e 9031 16bf
000000e0: 6684 16bf bfc1 aebd a1a1 3a3f 9382 68bf
000000f0: 9799 aebe 8800 443f 1ae1 683f 321f 2dbf

l2.bias f4 [8]
0.43897316 0.64775276 -0.21013749 -0.33870447 0.6555648 -0.21308014 0.49578163 0.10610204
00000000: 17c1 e03e 20d3 253f 482e 57be ac6a adbe
00000010: 18d3 273f ae31 5abe 17d7 fd3e 074c d93d

l3.weight f4 [4, 8]
-0.43489373 -0.68928343 0.21648696 -0.3272944 -0.46192554 -0.24339347 -0.77506834 -0.2156818
-0.39272568 1.0708488 0.1555737 -0.10764907 -0.3667671 0.17814311 -0.5100137 -1.381049
0.7064448 0.12562697 0.28528473 -0.27693012 -0.34192327 -0.32161555 -0.028371783 0.91310555
-0.2666098 -0.6678772 0.33864513 0.018733352 0.75096625 0.30716696 0.5602326 -0.5347085
00000000: 64aa debe e174 30bf c2ae 5d3e 2293 a7be
00000010: 8181 ecbe 233c 79be e16a 46bf b1db 5cbe
00000020: 5713 c9be 9311 893f b64e 1f3e 1e77 dcbd
00000030: e6c8 bbbe 266b 363e 4290 02bf 37c6 b0bf
00000040: 91d9 343f 5ba4 003e d710 923e c9c9 8dbe
00000050: 9110 afbe cbaa a4be f16b e8bc 49c1 693f
00000060: 1481 88be 00fa 2abf e562 ad3e b076 993c
00000070: 533f 403f fd44 9d3e 676b 0f3f a8e2 08bf

l3.bias f4 [4]
1.6149567 -0.3058113 -0.61906767 -0.55498815
00000000: e7b6 ce3f 4c93 9cbe 387b 1ebf b413 0ebf
